…
Now CUDA_VISIBLE_DEVICES is set to:
CUDA_VISIBLE_DEVICES=0
[11/16/23 11:17:06] INFO     colossalai - colossalai - INFO:
                             /home/lcyab/data/anaconda/envs/colossal-llama2/lib/
                             python3.8/site-packages/colossalai/initialize.py:63
                              launch
                    INFO     colossalai - colossalai - INFO: Distributed
                             environment is initialized, world size: 1
trainable params: 8110080 || all params: 567324672 || trainable%: 1.43
BloomForCausalLM(
  (transformer): BloomModel(
    (word_embeddings): Embedding(250880, 1024)
    (word_embeddings_layernorm): LayerNorm((1024,), eps=1e-05, elementwise_affine=True)
    (h): ModuleList(
      (0): BloomBlock(
        (input_layernorm): LayerNorm((1024,), eps=1e-05, elementwise_affine=True)
        (self_attention): BloomAttention(
          (query_key_value): Linear(
            in_features=1024, out_features=3072, bias=True
            (lora_dropout): ModuleDict(
              (default): Dropout(p=0.1, inplace=False)
            )
            (lora_A): ModuleDict(
              (default): Linear(in_features=1024, out_features=30, bias=False)
            )
            (lora_B): ModuleDict(
              (default): Linear(in_features=30, out_features=3072, bias=False)
            )
            (lora_embedding_A): ParameterDict()
            (lora_embedding_B): ParameterDict()
          )
          (dense): Linear(
            in_features=1024, out_features=1024, bias=True
            (lora_dropout): ModuleDict(
              (default): Dropout(p=0.1, inplace=False)
            )
            (lora_A): ModuleDict(
              (default): Linear(in_features=1024, out_features=30, bias=False)
            )
            (lora_B): ModuleDict(
              (default): Linear(in_features=30, out_features=1024, bias=False)
            )
            (lora_embedding_A): ParameterDict()
            (lora_embedding_B): ParameterDict()
          )
          (attention_dropout): Dropout(p=0.0, inplace=False)
        )
        (post_attention_layernorm): LayerNorm((1024,), eps=1e-05, elementwise_affine=True)
        (mlp): BloomMLP(
          (dense_h_to_4h): Linear(
            in_features=1024, out_features=4096, bias=True
            (lora_dropout): ModuleDict(
              (default): Dropout(p=0.1, inplace=False)
            )
            (lora_A): ModuleDict(
              (default): Linear(in_features=1024, out_features=30, bias=False)
            )
            (lora_B): ModuleDict(
              (default): Linear(in_features=30, out_features=4096, bias=False)
            )
            (lora_embedding_A): ParameterDict()
            (lora_embedding_B): ParameterDict()
          )
          (gelu_impl): BloomGelu()
          (dense_4h_to_h): Linear(in_features=4096, out_features=1024, bias=True)
        )
      )
      (1): BloomBlock(
        (input_layernorm): LayerNorm((1024,), eps=1e-05, elementwise_affine=True)
        (self_attention): BloomAttention(
          (query_key_value): Linear(
            in_features=1024, out_features=3072, bias=True
            (lora_dropout): ModuleDict(
              (default): Dropout(p=0.1, inplace=False)
            )
            (lora_A): ModuleDict(
              (default): Linear(in_features=1024, out_features=30, bias=False)
            )
            (lora_B): ModuleDict(
              (default): Linear(in_features=30, out_features=3072, bias=False)
            )
            (lora_embedding_A): ParameterDict()
            (lora_embedding_B): ParameterDict()
          )
          (dense): Linear(
            in_features=1024, out_features=1024, bias=True
            (lora_dropout): ModuleDict(
              (default): Dropout(p=0.1, inplace=False)
            )
            (lora_A): ModuleDict(
              (default): Linear(in_features=1024, out_features=30, bias=False)
            )
            (lora_B): ModuleDict(
              (default): Linear(in_features=30, out_features=1024, bias=False)
            )
            (lora_embedding_A): ParameterDict()
            (lora_embedding_B): ParameterDict()
          )
          (attention_dropout): Dropout(p=0.0, inplace=False)
        )
        (post_attention_layernorm): LayerNorm((1024,), eps=1e-05, elementwise_affine=True)
        (mlp): BloomMLP(
          (dense_h_to_4h): Linear(
            in_features=1024, out_features=4096, bias=True
            (lora_dropout): ModuleDict(
              (default): Dropout(p=0.1, inplace=False)
            )
            (lora_A): ModuleDict(
              (default): Linear(in_features=1024, out_features=30, bias=False)
            )
            (lora_B): ModuleDict(
              (default): Linear(in_features=30, out_features=4096, bias=False)
            )
            (lora_embedding_A): ParameterDict()
            (lora_embedding_B): ParameterDict()
          )
          (gelu_impl): BloomGelu()
          (dense_4h_to_h): Linear(in_features=4096, out_features=1024, bias=True)
        )
      )
      (2): BloomBlock(
        (input_layernorm): LayerNorm((1024,), eps=1e-05, elementwise_affine=True)
        (self_attention): BloomAttention(
          (query_key_value): Linear(
            in_features=1024, out_features=3072, bias=True
            (lora_dropout): ModuleDict(
              (default): Dropout(p=0.1, inplace=False)
            )
            (lora_A): ModuleDict(
              (default): Linear(in_features=1024, out_features=30, bias=False)
            )
            (lora_B): ModuleDict(
              (default): Linear(in_features=30, out_features=3072, bias=False)
            )
            (lora_embedding_A): ParameterDict()
            (lora_embedding_B): ParameterDict()
          )
          (dense): Linear(
            in_features=1024, out_features=1024, bias=True
            (lora_dropout): ModuleDict(
              (default): Dropout(p=0.1, inplace=False)
            )
            (lora_A): ModuleDict(
              (default): Linear(in_features=1024, out_features=30, bias=False)
            )
            (lora_B): ModuleDict(
              (default): Linear(in_features=30, out_features=1024, bias=False)
            )
            (lora_embedding_A): ParameterDict()
            (lora_embedding_B): ParameterDict()
          )
          (attention_dropout): Dropout(p=0.0, inplace=False)
        )
        (post_attention_layernorm): LayerNorm((1024,), eps=1e-05, elementwise_affine=True)
        (mlp): BloomMLP(
          (dense_h_to_4h): Linear(
            in_features=1024, out_features=4096, bias=True
            (lora_dropout): ModuleDict(
              (default): Dropout(p=0.1, inplace=False)
            )
            (lora_A): ModuleDict(
              (default): Linear(in_features=1024, out_features=30, bias=False)
            )
            (lora_B): ModuleDict(
              (default): Linear(in_features=30, out_features=4096, bias=False)
            )
            (lora_embedding_A): ParameterDict()
            (lora_embedding_B): ParameterDict()
          )
          (gelu_impl): BloomGelu()
          (dense_4h_to_h): Linear(in_features=4096, out_features=1024, bias=True)
        )
      )
      (3): BloomBlock(
        (input_layernorm): LayerNorm((1024,), eps=1e-05, elementwise_affine=True)
        (self_attention): BloomAttention(
          (query_key_value): Linear(
            in_features=1024, out_features=3072, bias=True
            (lora_dropout): ModuleDict(
              (default): Dropout(p=0.1, inplace=False)
            )
            (lora_A): ModuleDict(
              (default): Linear(in_features=1024, out_features=30, bias=False)
            )
            (lora_B): ModuleDict(
              (default): Linear(in_features=30, out_features=3072, bias=False)
            )
            (lora_embedding_A): ParameterDict()
            (lora_embedding_B): ParameterDict()
          )
          (dense): Linear(
            in_features=1024, out_features=1024, bias=True
            (lora_dropout): ModuleDict(
              (default): Dropout(p=0.1, inplace=False)
            )
            (lora_A): ModuleDict(
              (default): Linear(in_features=1024, out_features=30, bias=False)
            )
            (lora_B): ModuleDict(
              (default): Linear(in_features=30, out_features=1024, bias=False)
            )
            (lora_embedding_A): ParameterDict()
            (lora_embedding_B): ParameterDict()
          )
          (attention_dropout): Dropout(p=0.0, inplace=False)
        )
        (post_attention_layernorm): LayerNorm((1024,), eps=1e-05, elementwise_affine=True)
        (mlp): BloomMLP(
          (dense_h_to_4h): Linear(
            in_features=1024, out_features=4096, bias=True
            (lora_dropout): ModuleDict(
              (default): Dropout(p=0.1, inplace=False)
            )
            (lora_A): ModuleDict(
              (default): Linear(in_features=1024, out_features=30, bias=False)
            )
            (lora_B): ModuleDict(
              (default): Linear(in_features=30, out_features=4096, bias=False)
            )
            (lora_embedding_A): ParameterDict()
            (lora_embedding_B): ParameterDict()
          )
          (gelu_impl): BloomGelu()
          (dense_4h_to_h): Linear(in_features=4096, out_features=1024, bias=True)
        )
      )
      (4): BloomBlock(
        (input_layernorm): LayerNorm((1024,), eps=1e-05, elementwise_affine=True)
        (self_attention): BloomAttention(
          (query_key_value): Linear(
            in_features=1024, out_features=3072, bias=True
            (lora_dropout): ModuleDict(
              (default): Dropout(p=0.1, inplace=False)
            )
            (lora_A): ModuleDict(
              (default): Linear(in_features=1024, out_features=30, bias=False)
            )
            (lora_B): ModuleDict(
              (default): Linear(in_features=30, out_features=3072, bias=False)
            )
            (lora_embedding_A): ParameterDict()
            (lora_embedding_B): ParameterDict()
          )
          (dense): Linear(
            in_features=1024, out_features=1024, bias=True
            (lora_dropout): ModuleDict(
              (default): Dropout(p=0.1, inplace=False)
            )
            (lora_A): ModuleDict(
              (default): Linear(in_features=1024, out_features=30, bias=False)
            )
            (lora_B): ModuleDict(
              (default): Linear(in_features=30, out_features=1024, bias=False)
            )
            (lora_embedding_A): ParameterDict()
            (lora_embedding_B): ParameterDict()
          )
          (attention_dropout): Dropout(p=0.0, inplace=False)
        )
        (post_attention_layernorm): LayerNorm((1024,), eps=1e-05, elementwise_affine=True)
        (mlp): BloomMLP(
          (dense_h_to_4h): Linear(
            in_features=1024, out_features=4096, bias=True
            (lora_dropout): ModuleDict(
              (default): Dropout(p=0.1, inplace=False)
            )
            (lora_A): ModuleDict(
              (default): Linear(in_features=1024, out_features=30, bias=False)
            )
            (lora_B): ModuleDict(
              (default): Linear(in_features=30, out_features=4096, bias=False)
            )
            (lora_embedding_A): ParameterDict()
            (lora_embedding_B): ParameterDict()
          )
          (gelu_impl): BloomGelu()
          (dense_4h_to_h): Linear(in_features=4096, out_features=1024, bias=True)
        )
      )
      (5): BloomBlock(
        (input_layernorm): LayerNorm((1024,), eps=1e-05, elementwise_affine=True)
        (self_attention): BloomAttention(
          (query_key_value): Linear(
            in_features=1024, out_features=3072, bias=True
            (lora_dropout): ModuleDict(
              (default): Dropout(p=0.1, inplace=False)
            )
            (lora_A): ModuleDict(
              (default): Linear(in_features=1024, out_features=30, bias=False)
            )
            (lora_B): ModuleDict(
              (default): Linear(in_features=30, out_features=3072, bias=False)
            )
            (lora_embedding_A): ParameterDict()
            (lora_embedding_B): ParameterDict()
          )
          (dense): Linear(
            in_features=1024, out_features=1024, bias=True
            (lora_dropout): ModuleDict(
              (default): Dropout(p=0.1, inplace=False)
            )
            (lora_A): ModuleDict(
              (default): Linear(in_features=1024, out_features=30, bias=False)
            )
            (lora_B): ModuleDict(
              (default): Linear(in_features=30, out_features=1024, bias=False)
            )
            (lora_embedding_A): ParameterDict()
            (lora_embedding_B): ParameterDict()
          )
          (attention_dropout): Dropout(p=0.0, inplace=False)
        )
        (post_attention_layernorm): LayerNorm((1024,), eps=1e-05, elementwise_affine=True)
        (mlp): BloomMLP(
          (dense_h_to_4h): Linear(
            in_features=1024, out_features=4096, bias=True
            (lora_dropout): ModuleDict(
              (default): Dropout(p=0.1, inplace=False)
            )
            (lora_A): ModuleDict(
              (default): Linear(in_features=1024, out_features=30, bias=False)
            )
            (lora_B): ModuleDict(
              (default): Linear(in_features=30, out_features=4096, bias=False)
            )
            (lora_embedding_A): ParameterDict()
            (lora_embedding_B): ParameterDict()
          )
          (gelu_impl): BloomGelu()
          (dense_4h_to_h): Linear(in_features=4096, out_features=1024, bias=True)
        )
      )
      (6): BloomBlock(
        (input_layernorm): LayerNorm((1024,), eps=1e-05, elementwise_affine=True)
        (self_attention): BloomAttention(
          (query_key_value): Linear(
            in_features=1024, out_features=3072, bias=True
            (lora_dropout): ModuleDict(
              (default): Dropout(p=0.1, inplace=False)
            )
            (lora_A): ModuleDict(
              (default): Linear(in_features=1024, out_features=30, bias=False)
            )
            (lora_B): ModuleDict(
              (default): Linear(in_features=30, out_features=3072, bias=False)
            )
            (lora_embedding_A): ParameterDict()
            (lora_embedding_B): ParameterDict()
          )
          (dense): Linear(
            in_features=1024, out_features=1024, bias=True
            (lora_dropout): ModuleDict(
              (default): Dropout(p=0.1, inplace=False)
            )
            (lora_A): ModuleDict(
              (default): Linear(in_features=1024, out_features=30, bias=False)
            )
            (lora_B): ModuleDict(
              (default): Linear(in_features=30, out_features=1024, bias=False)
            )
            (lora_embedding_A): ParameterDict()
            (lora_embedding_B): ParameterDict()
          )
          (attention_dropout): Dropout(p=0.0, inplace=False)
        )
        (post_attention_layernorm): LayerNorm((1024,), eps=1e-05, elementwise_affine=True)
        (mlp): BloomMLP(
          (dense_h_to_4h): Linear(
            in_features=1024, out_features=4096, bias=True
            (lora_dropout): ModuleDict(
              (default): Dropout(p=0.1, inplace=False)
            )
            (lora_A): ModuleDict(
              (default): Linear(in_features=1024, out_features=30, bias=False)
            )
            (lora_B): ModuleDict(
              (default): Linear(in_features=30, out_features=4096, bias=False)
            )
            (lora_embedding_A): ParameterDict()
            (lora_embedding_B): ParameterDict()
          )
          (gelu_impl): BloomGelu()
          (dense_4h_to_h): Linear(in_features=4096, out_features=1024, bias=True)
        )
      )
      (7): BloomBlock(
        (input_layernorm): LayerNorm((1024,), eps=1e-05, elementwise_affine=True)
        (self_attention): BloomAttention(
          (query_key_value): Linear(
            in_features=1024, out_features=3072, bias=True
            (lora_dropout): ModuleDict(
              (default): Dropout(p=0.1, inplace=False)
            )
            (lora_A): ModuleDict(
              (default): Linear(in_features=1024, out_features=30, bias=False)
            )
            (lora_B): ModuleDict(
              (default): Linear(in_features=30, out_features=3072, bias=False)
            )
            (lora_embedding_A): ParameterDict()
            (lora_embedding_B): ParameterDict()
          )
          (dense): Linear(
            in_features=1024, out_features=1024, bias=True
            (lora_dropout): ModuleDict(
              (default): Dropout(p=0.1, inplace=False)
            )
            (lora_A): ModuleDict(
              (default): Linear(in_features=1024, out_features=30, bias=False)
            )
            (lora_B): ModuleDict(
              (default): Linear(in_features=30, out_features=1024, bias=False)
            )
            (lora_embedding_A): ParameterDict()
            (lora_embedding_B): ParameterDict()
          )
          (attention_dropout): Dropout(p=0.0, inplace=False)
        )
        (post_attention_layernorm): LayerNorm((1024,), eps=1e-05, elementwise_affine=True)
        (mlp): BloomMLP(
          (dense_h_to_4h): Linear(
            in_features=1024, out_features=4096, bias=True
            (lora_dropout): ModuleDict(
              (default): Dropout(p=0.1, inplace=False)
            )
            (lora_A): ModuleDict(
              (default): Linear(in_features=1024, out_features=30, bias=False)
            )
            (lora_B): ModuleDict(
              (default): Linear(in_features=30, out_features=4096, bias=False)
            )
            (lora_embedding_A): ParameterDict()
            (lora_embedding_B): ParameterDict()
          )
          (gelu_impl): BloomGelu()
          (dense_4h_to_h): Linear(in_features=4096, out_features=1024, bias=True)
        )
      )
      (8): BloomBlock(
        (input_layernorm): LayerNorm((1024,), eps=1e-05, elementwise_affine=True)
        (self_attention): BloomAttention(
          (query_key_value): Linear(
            in_features=1024, out_features=3072, bias=True
            (lora_dropout): ModuleDict(
              (default): Dropout(p=0.1, inplace=False)
            )
            (lora_A): ModuleDict(
              (default): Linear(in_features=1024, out_features=30, bias=False)
            )
            (lora_B): ModuleDict(
              (default): Linear(in_features=30, out_features=3072, bias=False)
            )
            (lora_embedding_A): ParameterDict()
            (lora_embedding_B): ParameterDict()
          )
          (dense): Linear(
            in_features=1024, out_features=1024, bias=True
            (lora_dropout): ModuleDict(
              (default): Dropout(p=0.1, inplace=False)
            )
            (lora_A): ModuleDict(
              (default): Linear(in_features=1024, out_features=30, bias=False)
            )
            (lora_B): ModuleDict(
              (default): Linear(in_features=30, out_features=1024, bias=False)
            )
            (lora_embedding_A): ParameterDict()
            (lora_embedding_B): ParameterDict()
          )
          (attention_dropout): Dropout(p=0.0, inplace=False)
        )
        (post_attention_layernorm): LayerNorm((1024,), eps=1e-05, elementwise_affine=True)
        (mlp): BloomMLP(
          (dense_h_to_4h): Linear(
            in_features=1024, out_features=4096, bias=True
            (lora_dropout): ModuleDict(
              (default): Dropout(p=0.1, inplace=False)
            )
            (lora_A): ModuleDict(
              (default): Linear(in_features=1024, out_features=30, bias=False)
            )
            (lora_B): ModuleDict(
              (default): Linear(in_features=30, out_features=4096, bias=False)
            )
            (lora_embedding_A): ParameterDict()
            (lora_embedding_B): ParameterDict()
          )
          (gelu_impl): BloomGelu()
          (dense_4h_to_h): Linear(in_features=4096, out_features=1024, bias=True)
        )
      )
      (9): BloomBlock(
        (input_layernorm): LayerNorm((1024,), eps=1e-05, elementwise_affine=True)
        (self_attention): BloomAttention(
          (query_key_value): Linear(
            in_features=1024, out_features=3072, bias=True
            (lora_dropout): ModuleDict(
              (default): Dropout(p=0.1, inplace=False)
            )
            (lora_A): ModuleDict(
              (default): Linear(in_features=1024, out_features=30, bias=False)
            )
            (lora_B): ModuleDict(
              (default): Linear(in_features=30, out_features=3072, bias=False)
            )
            (lora_embedding_A): ParameterDict()
            (lora_embedding_B): ParameterDict()
          )
          (dense): Linear(
            in_features=1024, out_features=1024, bias=True
            (lora_dropout): ModuleDict(
              (default): Dropout(p=0.1, inplace=False)
            )
            (lora_A): ModuleDict(
              (default): Linear(in_features=1024, out_features=30, bias=False)
            )
            (lora_B): ModuleDict(
              (default): Linear(in_features=30, out_features=1024, bias=False)
            )
            (lora_embedding_A): ParameterDict()
            (lora_embedding_B): ParameterDict()
          )
          (attention_dropout): Dropout(p=0.0, inplace=False)
        )
        (post_attention_layernorm): LayerNorm((1024,), eps=1e-05, elementwise_affine=True)
        (mlp): BloomMLP(
          (dense_h_to_4h): Linear(
            in_features=1024, out_features=4096, bias=True
            (lora_dropout): ModuleDict(
              (default): Dropout(p=0.1, inplace=False)
            )
            (lora_A): ModuleDict(
              (default): Linear(in_features=1024, out_features=30, bias=False)
            )
            (lora_B): ModuleDict(
              (default): Linear(in_features=30, out_features=4096, bias=False)
            )
            (lora_embedding_A): ParameterDict()
            (lora_embedding_B): ParameterDict()
          )
          (gelu_impl): BloomGelu()
          (dense_4h_to_h): Linear(in_features=4096, out_features=1024, bias=True)
        )
      )
      (10): BloomBlock(
        (input_layernorm): LayerNorm((1024,), eps=1e-05, elementwise_affine=True)
        (self_attention): BloomAttention(
          (query_key_value): Linear(
            in_features=1024, out_features=3072, bias=True
            (lora_dropout): ModuleDict(
              (default): Dropout(p=0.1, inplace=False)
            )
            (lora_A): ModuleDict(
              (default): Linear(in_features=1024, out_features=30, bias=False)
            )
            (lora_B): ModuleDict(
              (default): Linear(in_features=30, out_features=3072, bias=False)
            )
            (lora_embedding_A): ParameterDict()
            (lora_embedding_B): ParameterDict()
          )
          (dense): Linear(
            in_features=1024, out_features=1024, bias=True
            (lora_dropout): ModuleDict(
              (default): Dropout(p=0.1, inplace=False)
            )
            (lora_A): ModuleDict(
              (default): Linear(in_features=1024, out_features=30, bias=False)
            )
            (lora_B): ModuleDict(
              (default): Linear(in_features=30, out_features=1024, bias=False)
            )
            (lora_embedding_A): ParameterDict()
            (lora_embedding_B): ParameterDict()
          )
          (attention_dropout): Dropout(p=0.0, inplace=False)
        )
        (post_attention_layernorm): LayerNorm((1024,), eps=1e-05, elementwise_affine=True)
        (mlp): BloomMLP(
          (dense_h_to_4h): Linear(
            in_features=1024, out_features=4096, bias=True
            (lora_dropout): ModuleDict(
              (default): Dropout(p=0.1, inplace=False)
            )
            (lora_A): ModuleDict(
              (default): Linear(in_features=1024, out_features=30, bias=False)
            )
            (lora_B): ModuleDict(
              (default): Linear(in_features=30, out_features=4096, bias=False)
            )
            (lora_embedding_A): ParameterDict()
            (lora_embedding_B): ParameterDict()
          )
          (gelu_impl): BloomGelu()
          (dense_4h_to_h): Linear(in_features=4096, out_features=1024, bias=True)
        )
      )
      (11): BloomBlock(
        (input_layernorm): LayerNorm((1024,), eps=1e-05, elementwise_affine=True)
        (self_attention): BloomAttention(
          (query_key_value): Linear(
            in_features=1024, out_features=3072, bias=True
            (lora_dropout): ModuleDict(
              (default): Dropout(p=0.1, inplace=False)
            )
            (lora_A): ModuleDict(
              (default): Linear(in_features=1024, out_features=30, bias=False)
            )
            (lora_B): ModuleDict(
              (default): Linear(in_features=30, out_features=3072, bias=False)
            )
            (lora_embedding_A): ParameterDict()
            (lora_embedding_B): ParameterDict()
          )
          (dense): Linear(
            in_features=1024, out_features=1024, bias=True
            (lora_dropout): ModuleDict(
              (default): Dropout(p=0.1, inplace=False)
            )
            (lora_A): ModuleDict(
              (default): Linear(in_features=1024, out_features=30, bias=False)
            )
            (lora_B): ModuleDict(
              (default): Linear(in_features=30, out_features=1024, bias=False)
            )
            (lora_embedding_A): ParameterDict()
            (lora_embedding_B): ParameterDict()
          )
          (attention_dropout): Dropout(p=0.0, inplace=False)
        )
        (post_attention_layernorm): LayerNorm((1024,), eps=1e-05, elementwise_affine=True)
        (mlp): BloomMLP(
          (dense_h_to_4h): Linear(
            in_features=1024, out_features=4096, bias=True
            (lora_dropout): ModuleDict(
              (default): Dropout(p=0.1, inplace=False)
            )
            (lora_A): ModuleDict(
              (default): Linear(in_features=1024, out_features=30, bias=False)
            )
            (lora_B): ModuleDict(
              (default): Linear(in_features=30, out_features=4096, bias=False)
            )
            (lora_embedding_A): ParameterDict()
            (lora_embedding_B): ParameterDict()
          )
          (gelu_impl): BloomGelu()
          (dense_4h_to_h): Linear(in_features=4096, out_features=1024, bias=True)
        )
      )
      (12): BloomBlock(
        (input_layernorm): LayerNorm((1024,), eps=1e-05, elementwise_affine=True)
        (self_attention): BloomAttention(
          (query_key_value): Linear(
            in_features=1024, out_features=3072, bias=True
            (lora_dropout): ModuleDict(
              (default): Dropout(p=0.1, inplace=False)
            )
            (lora_A): ModuleDict(
              (default): Linear(in_features=1024, out_features=30, bias=False)
            )
            (lora_B): ModuleDict(
              (default): Linear(in_features=30, out_features=3072, bias=False)
            )
            (lora_embedding_A): ParameterDict()
            (lora_embedding_B): ParameterDict()
          )
          (dense): Linear(
            in_features=1024, out_features=1024, bias=True
            (lora_dropout): ModuleDict(
              (default): Dropout(p=0.1, inplace=False)
            )
            (lora_A): ModuleDict(
              (default): Linear(in_features=1024, out_features=30, bias=False)
            )
            (lora_B): ModuleDict(
              (default): Linear(in_features=30, out_features=1024, bias=False)
            )
            (lora_embedding_A): ParameterDict()
            (lora_embedding_B): ParameterDict()
          )
          (attention_dropout): Dropout(p=0.0, inplace=False)
        )
        (post_attention_layernorm): LayerNorm((1024,), eps=1e-05, elementwise_affine=True)
        (mlp): BloomMLP(
          (dense_h_to_4h): Linear(
            in_features=1024, out_features=4096, bias=True
            (lora_dropout): ModuleDict(
              (default): Dropout(p=0.1, inplace=False)
            )
            (lora_A): ModuleDict(
              (default): Linear(in_features=1024, out_features=30, bias=False)
            )
            (lora_B): ModuleDict(
              (default): Linear(in_features=30, out_features=4096, bias=False)
            )
            (lora_embedding_A): ParameterDict()
            (lora_embedding_B): ParameterDict()
          )
          (gelu_impl): BloomGelu()
          (dense_4h_to_h): Linear(in_features=4096, out_features=1024, bias=True)
        )
      )
      (13): BloomBlock(
        (input_layernorm): LayerNorm((1024,), eps=1e-05, elementwise_affine=True)
        (self_attention): BloomAttention(
          (query_key_value): Linear(
            in_features=1024, out_features=3072, bias=True
            (lora_dropout): ModuleDict(
              (default): Dropout(p=0.1, inplace=False)
            )
            (lora_A): ModuleDict(
              (default): Linear(in_features=1024, out_features=30, bias=False)
            )
            (lora_B): ModuleDict(
              (default): Linear(in_features=30, out_features=3072, bias=False)
            )
            (lora_embedding_A): ParameterDict()
            (lora_embedding_B): ParameterDict()
          )
          (dense): Linear(
            in_features=1024, out_features=1024, bias=True
            (lora_dropout): ModuleDict(
              (default): Dropout(p=0.1, inplace=False)
            )
            (lora_A): ModuleDict(
              (default): Linear(in_features=1024, out_features=30, bias=False)
            )
            (lora_B): ModuleDict(
              (default): Linear(in_features=30, out_features=1024, bias=False)
            )
            (lora_embedding_A): ParameterDict()
            (lora_embedding_B): ParameterDict()
          )
          (attention_dropout): Dropout(p=0.0, inplace=False)
        )
        (post_attention_layernorm): LayerNorm((1024,), eps=1e-05, elementwise_affine=True)
        (mlp): BloomMLP(
          (dense_h_to_4h): Linear(
            in_features=1024, out_features=4096, bias=True
            (lora_dropout): ModuleDict(
              (default): Dropout(p=0.1, inplace=False)
            )
            (lora_A): ModuleDict(
              (default): Linear(in_features=1024, out_features=30, bias=False)
            )
            (lora_B): ModuleDict(
              (default): Linear(in_features=30, out_features=4096, bias=False)
            )
            (lora_embedding_A): ParameterDict()
            (lora_embedding_B): ParameterDict()
          )
          (gelu_impl): BloomGelu()
          (dense_4h_to_h): Linear(in_features=4096, out_features=1024, bias=True)
        )
      )
      (14): BloomBlock(
        (input_layernorm): LayerNorm((1024,), eps=1e-05, elementwise_affine=True)
        (self_attention): BloomAttention(
          (query_key_value): Linear(
            in_features=1024, out_features=3072, bias=True
            (lora_dropout): ModuleDict(
              (default): Dropout(p=0.1, inplace=False)
            )
            (lora_A): ModuleDict(
              (default): Linear(in_features=1024, out_features=30, bias=False)
            )
            (lora_B): ModuleDict(
              (default): Linear(in_features=30, out_features=3072, bias=False)
            )
            (lora_embedding_A): ParameterDict()
            (lora_embedding_B): ParameterDict()
          )
          (dense): Linear(
            in_features=1024, out_features=1024, bias=True
            (lora_dropout): ModuleDict(
              (default): Dropout(p=0.1, inplace=False)
            )
            (lora_A): ModuleDict(
              (default): Linear(in_features=1024, out_features=30, bias=False)
            )
            (lora_B): ModuleDict(
              (default): Linear(in_features=30, out_features=1024, bias=False)
            )
            (lora_embedding_A): ParameterDict()
            (lora_embedding_B): ParameterDict()
          )
          (attention_dropout): Dropout(p=0.0, inplace=False)
        )
        (post_attention_layernorm): LayerNorm((1024,), eps=1e-05, elementwise_affine=True)
        (mlp): BloomMLP(
          (dense_h_to_4h): Linear(
            in_features=1024, out_features=4096, bias=True
            (lora_dropout): ModuleDict(
              (default): Dropout(p=0.1, inplace=False)
            )
            (lora_A): ModuleDict(
              (default): Linear(in_features=1024, out_features=30, bias=False)
            )
            (lora_B): ModuleDict(
              (default): Linear(in_features=30, out_features=4096, bias=False)
            )
            (lora_embedding_A): ParameterDict()
            (lora_embedding_B): ParameterDict()
          )
          (gelu_impl): BloomGelu()
          (dense_4h_to_h): Linear(in_features=4096, out_features=1024, bias=True)
        )
      )
      (15): BloomBlock(
        (input_layernorm): LayerNorm((1024,), eps=1e-05, elementwise_affine=True)
        (self_attention): BloomAttention(
          (query_key_value): Linear(
            in_features=1024, out_features=3072, bias=True
            (lora_dropout): ModuleDict(
              (default): Dropout(p=0.1, inplace=False)
            )
            (lora_A): ModuleDict(
              (default): Linear(in_features=1024, out_features=30, bias=False)
            )
            (lora_B): ModuleDict(
              (default): Linear(in_features=30, out_features=3072, bias=False)
            )
            (lora_embedding_A): ParameterDict()
            (lora_embedding_B): ParameterDict()
          )
          (dense): Linear(
            in_features=1024, out_features=1024, bias=True
            (lora_dropout): ModuleDict(
              (default): Dropout(p=0.1, inplace=False)
            )
            (lora_A): ModuleDict(
              (default): Linear(in_features=1024, out_features=30, bias=False)
            )
            (lora_B): ModuleDict(
              (default): Linear(in_features=30, out_features=1024, bias=False)
            )
            (lora_embedding_A): ParameterDict()
            (lora_embedding_B): ParameterDict()
          )
          (attention_dropout): Dropout(p=0.0, inplace=False)
        )
        (post_attention_layernorm): LayerNorm((1024,), eps=1e-05, elementwise_affine=True)
        (mlp): BloomMLP(
          (dense_h_to_4h): Linear(
            in_features=1024, out_features=4096, bias=True
            (lora_dropout): ModuleDict(
              (default): Dropout(p=0.1, inplace=False)
            )
            (lora_A): ModuleDict(
              (default): Linear(in_features=1024, out_features=30, bias=False)
            )
            (lora_B): ModuleDict(
              (default): Linear(in_features=30, out_features=4096, bias=False)
            )
            (lora_embedding_A): ParameterDict()
            (lora_embedding_B): ParameterDict()
          )
          (gelu_impl): BloomGelu()
          (dense_4h_to_h): Linear(in_features=4096, out_features=1024, bias=True)
        )
      )
      (16): BloomBlock(
        (input_layernorm): LayerNorm((1024,), eps=1e-05, elementwise_affine=True)
        (self_attention): BloomAttention(
          (query_key_value): Linear(
            in_features=1024, out_features=3072, bias=True
            (lora_dropout): ModuleDict(
              (default): Dropout(p=0.1, inplace=False)
            )
            (lora_A): ModuleDict(
              (default): Linear(in_features=1024, out_features=30, bias=False)
            )
            (lora_B): ModuleDict(
              (default): Linear(in_features=30, out_features=3072, bias=False)
            )
            (lora_embedding_A): ParameterDict()
            (lora_embedding_B): ParameterDict()
          )
          (dense): Linear(
            in_features=1024, out_features=1024, bias=True
            (lora_dropout): ModuleDict(
              (default): Dropout(p=0.1, inplace=False)
            )
            (lora_A): ModuleDict(
              (default): Linear(in_features=1024, out_features=30, bias=False)
            )
            (lora_B): ModuleDict(
              (default): Linear(in_features=30, out_features=1024, bias=False)
            )
            (lora_embedding_A): ParameterDict()
            (lora_embedding_B): ParameterDict()
          )
          (attention_dropout): Dropout(p=0.0, inplace=False)
        )
        (post_attention_layernorm): LayerNorm((1024,), eps=1e-05, elementwise_affine=True)
        (mlp): BloomMLP(
          (dense_h_to_4h): Linear(
            in_features=1024, out_features=4096, bias=True
            (lora_dropout): ModuleDict(
              (default): Dropout(p=0.1, inplace=False)
            )
            (lora_A): ModuleDict(
              (default): Linear(in_features=1024, out_features=30, bias=False)
            )
            (lora_B): ModuleDict(
              (default): Linear(in_features=30, out_features=4096, bias=False)
            )
            (lora_embedding_A): ParameterDict()
            (lora_embedding_B): ParameterDict()
          )
          (gelu_impl): BloomGelu()
          (dense_4h_to_h): Linear(in_features=4096, out_features=1024, bias=True)
        )
      )
      (17): BloomBlock(
        (input_layernorm): LayerNorm((1024,), eps=1e-05, elementwise_affine=True)
        (self_attention): BloomAttention(
          (query_key_value): Linear(
            in_features=1024, out_features=3072, bias=True
            (lora_dropout): ModuleDict(
              (default): Dropout(p=0.1, inplace=False)
            )
            (lora_A): ModuleDict(
              (default): Linear(in_features=1024, out_features=30, bias=False)
            )
            (lora_B): ModuleDict(
              (default): Linear(in_features=30, out_features=3072, bias=False)
            )
            (lora_embedding_A): ParameterDict()
            (lora_embedding_B): ParameterDict()
          )
          (dense): Linear(
            in_features=1024, out_features=1024, bias=True
            (lora_dropout): ModuleDict(
              (default): Dropout(p=0.1, inplace=False)
            )
            (lora_A): ModuleDict(
              (default): Linear(in_features=1024, out_features=30, bias=False)
            )
            (lora_B): ModuleDict(
              (default): Linear(in_features=30, out_features=1024, bias=False)
            )
            (lora_embedding_A): ParameterDict()
            (lora_embedding_B): ParameterDict()
          )
          (attention_dropout): Dropout(p=0.0, inplace=False)
        )
        (post_attention_layernorm): LayerNorm((1024,), eps=1e-05, elementwise_affine=True)
        (mlp): BloomMLP(
          (dense_h_to_4h): Linear(
            in_features=1024, out_features=4096, bias=True
            (lora_dropout): ModuleDict(
              (default): Dropout(p=0.1, inplace=False)
            )
            (lora_A): ModuleDict(
              (default): Linear(in_features=1024, out_features=30, bias=False)
            )
            (lora_B): ModuleDict(
              (default): Linear(in_features=30, out_features=4096, bias=False)
            )
            (lora_embedding_A): ParameterDict()
            (lora_embedding_B): ParameterDict()
          )
          (gelu_impl): BloomGelu()
          (dense_4h_to_h): Linear(in_features=4096, out_features=1024, bias=True)
        )
      )
      (18): BloomBlock(
        (input_layernorm): LayerNorm((1024,), eps=1e-05, elementwise_affine=True)
        (self_attention): BloomAttention(
          (query_key_value): Linear(
            in_features=1024, out_features=3072, bias=True
            (lora_dropout): ModuleDict(
              (default): Dropout(p=0.1, inplace=False)
            )
            (lora_A): ModuleDict(
              (default): Linear(in_features=1024, out_features=30, bias=False)
            )
            (lora_B): ModuleDict(
              (default): Linear(in_features=30, out_features=3072, bias=False)
            )
            (lora_embedding_A): ParameterDict()
            (lora_embedding_B): ParameterDict()
          )
          (dense): Linear(
            in_features=1024, out_features=1024, bias=True
            (lora_dropout): ModuleDict(
              (default): Dropout(p=0.1, inplace=False)
            )
            (lora_A): ModuleDict(
              (default): Linear(in_features=1024, out_features=30, bias=False)
            )
            (lora_B): ModuleDict(
              (default): Linear(in_features=30, out_features=1024, bias=False)
            )
            (lora_embedding_A): ParameterDict()
            (lora_embedding_B): ParameterDict()
          )
          (attention_dropout): Dropout(p=0.0, inplace=False)
        )
        (post_attention_layernorm): LayerNorm((1024,), eps=1e-05, elementwise_affine=True)
        (mlp): BloomMLP(
          (dense_h_to_4h): Linear(
            in_features=1024, out_features=4096, bias=True
            (lora_dropout): ModuleDict(
              (default): Dropout(p=0.1, inplace=False)
            )
            (lora_A): ModuleDict(
              (default): Linear(in_features=1024, out_features=30, bias=False)
            )
            (lora_B): ModuleDict(
              (default): Linear(in_features=30, out_features=4096, bias=False)
            )
            (lora_embedding_A): ParameterDict()
            (lora_embedding_B): ParameterDict()
          )
          (gelu_impl): BloomGelu()
          (dense_4h_to_h): Linear(in_features=4096, out_features=1024, bias=True)
        )
      )
      (19): BloomBlock(
        (input_layernorm): LayerNorm((1024,), eps=1e-05, elementwise_affine=True)
        (self_attention): BloomAttention(
          (query_key_value): Linear(
            in_features=1024, out_features=3072, bias=True
            (lora_dropout): ModuleDict(
              (default): Dropout(p=0.1, inplace=False)
            )
            (lora_A): ModuleDict(
              (default): Linear(in_features=1024, out_features=30, bias=False)
            )
            (lora_B): ModuleDict(
              (default): Linear(in_features=30, out_features=3072, bias=False)
            )
            (lora_embedding_A): ParameterDict()
            (lora_embedding_B): ParameterDict()
          )
          (dense): Linear(
            in_features=1024, out_features=1024, bias=True
            (lora_dropout): ModuleDict(
              (default): Dropout(p=0.1, inplace=False)
            )
            (lora_A): ModuleDict(
              (default): Linear(in_features=1024, out_features=30, bias=False)
            )
            (lora_B): ModuleDict(
              (default): Linear(in_features=30, out_features=1024, bias=False)
            )
            (lora_embedding_A): ParameterDict()
            (lora_embedding_B): ParameterDict()
          )
          (attention_dropout): Dropout(p=0.0, inplace=False)
        )
        (post_attention_layernorm): LayerNorm((1024,), eps=1e-05, elementwise_affine=True)
        (mlp): BloomMLP(
          (dense_h_to_4h): Linear(
            in_features=1024, out_features=4096, bias=True
            (lora_dropout): ModuleDict(
              (default): Dropout(p=0.1, inplace=False)
            )
            (lora_A): ModuleDict(
              (default): Linear(in_features=1024, out_features=30, bias=False)
            )
            (lora_B): ModuleDict(
              (default): Linear(in_features=30, out_features=4096, bias=False)
            )
            (lora_embedding_A): ParameterDict()
            (lora_embedding_B): ParameterDict()
          )
          (gelu_impl): BloomGelu()
          (dense_4h_to_h): Linear(in_features=4096, out_features=1024, bias=True)
        )
      )
      (20): BloomBlock(
        (input_layernorm): LayerNorm((1024,), eps=1e-05, elementwise_affine=True)
        (self_attention): BloomAttention(
          (query_key_value): Linear(
            in_features=1024, out_features=3072, bias=True
            (lora_dropout): ModuleDict(
              (default): Dropout(p=0.1, inplace=False)
            )
            (lora_A): ModuleDict(
              (default): Linear(in_features=1024, out_features=30, bias=False)
            )
            (lora_B): ModuleDict(
              (default): Linear(in_features=30, out_features=3072, bias=False)
            )
            (lora_embedding_A): ParameterDict()
            (lora_embedding_B): ParameterDict()
          )
          (dense): Linear(
            in_features=1024, out_features=1024, bias=True
            (lora_dropout): ModuleDict(
              (default): Dropout(p=0.1, inplace=False)
            )
            (lora_A): ModuleDict(
              (default): Linear(in_features=1024, out_features=30, bias=False)
            )
            (lora_B): ModuleDict(
              (default): Linear(in_features=30, out_features=1024, bias=False)
            )
            (lora_embedding_A): ParameterDict()
            (lora_embedding_B): ParameterDict()
          )
          (attention_dropout): Dropout(p=0.0, inplace=False)
        )
        (post_attention_layernorm): LayerNorm((1024,), eps=1e-05, elementwise_affine=True)
        (mlp): BloomMLP(
          (dense_h_to_4h): Linear(
            in_features=1024, out_features=4096, bias=True
            (lora_dropout): ModuleDict(
              (default): Dropout(p=0.1, inplace=False)
            )
            (lora_A): ModuleDict(
              (default): Linear(in_features=1024, out_features=30, bias=False)
            )
            (lora_B): ModuleDict(
              (default): Linear(in_features=30, out_features=4096, bias=False)
            )
            (lora_embedding_A): ParameterDict()
            (lora_embedding_B): ParameterDict()
          )
          (gelu_impl): BloomGelu()
          (dense_4h_to_h): Linear(in_features=4096, out_features=1024, bias=True)
        )
      )
      (21): BloomBlock(
        (input_layernorm): LayerNorm((1024,), eps=1e-05, elementwise_affine=True)
        (self_attention): BloomAttention(
          (query_key_value): Linear(
            in_features=1024, out_features=3072, bias=True
            (lora_dropout): ModuleDict(
              (default): Dropout(p=0.1, inplace=False)
            )
            (lora_A): ModuleDict(
              (default): Linear(in_features=1024, out_features=30, bias=False)
            )
            (lora_B): ModuleDict(
              (default): Linear(in_features=30, out_features=3072, bias=False)
            )
            (lora_embedding_A): ParameterDict()
            (lora_embedding_B): ParameterDict()
          )
          (dense): Linear(
            in_features=1024, out_features=1024, bias=True
            (lora_dropout): ModuleDict(
              (default): Dropout(p=0.1, inplace=False)
            )
            (lora_A): ModuleDict(
              (default): Linear(in_features=1024, out_features=30, bias=False)
            )
            (lora_B): ModuleDict(
              (default): Linear(in_features=30, out_features=1024, bias=False)
            )
            (lora_embedding_A): ParameterDict()
            (lora_embedding_B): ParameterDict()
          )
          (attention_dropout): Dropout(p=0.0, inplace=False)
        )
        (post_attention_layernorm): LayerNorm((1024,), eps=1e-05, elementwise_affine=True)
        (mlp): BloomMLP(
          (dense_h_to_4h): Linear(
            in_features=1024, out_features=4096, bias=True
            (lora_dropout): ModuleDict(
              (default): Dropout(p=0.1, inplace=False)
            )
            (lora_A): ModuleDict(
              (default): Linear(in_features=1024, out_features=30, bias=False)
            )
            (lora_B): ModuleDict(
              (default): Linear(in_features=30, out_features=4096, bias=False)
            )
            (lora_embedding_A): ParameterDict()
            (lora_embedding_B): ParameterDict()
          )
          (gelu_impl): BloomGelu()
          (dense_4h_to_h): Linear(in_features=4096, out_features=1024, bias=True)
        )
      )
      (22): BloomBlock(
        (input_layernorm): LayerNorm((1024,), eps=1e-05, elementwise_affine=True)
        (self_attention): BloomAttention(
          (query_key_value): Linear(
            in_features=1024, out_features=3072, bias=True
            (lora_dropout): ModuleDict(
              (default): Dropout(p=0.1, inplace=False)
            )
            (lora_A): ModuleDict(
              (default): Linear(in_features=1024, out_features=30, bias=False)
            )
            (lora_B): ModuleDict(
              (default): Linear(in_features=30, out_features=3072, bias=False)
            )
            (lora_embedding_A): ParameterDict()
            (lora_embedding_B): ParameterDict()
          )
          (dense): Linear(
            in_features=1024, out_features=1024, bias=True
            (lora_dropout): ModuleDict(
              (default): Dropout(p=0.1, inplace=False)
            )
            (lora_A): ModuleDict(
              (default): Linear(in_features=1024, out_features=30, bias=False)
            )
            (lora_B): ModuleDict(
              (default): Linear(in_features=30, out_features=1024, bias=False)
            )
            (lora_embedding_A): ParameterDict()
            (lora_embedding_B): ParameterDict()
          )
          (attention_dropout): Dropout(p=0.0, inplace=False)
        )
        (post_attention_layernorm): LayerNorm((1024,), eps=1e-05, elementwise_affine=True)
        (mlp): BloomMLP(
          (dense_h_to_4h): Linear(
            in_features=1024, out_features=4096, bias=True
            (lora_dropout): ModuleDict(
              (default): Dropout(p=0.1, inplace=False)
            )
            (lora_A): ModuleDict(
              (default): Linear(in_features=1024, out_features=30, bias=False)
            )
            (lora_B): ModuleDict(
              (default): Linear(in_features=30, out_features=4096, bias=False)
            )
            (lora_embedding_A): ParameterDict()
            (lora_embedding_B): ParameterDict()
          )
          (gelu_impl): BloomGelu()
          (dense_4h_to_h): Linear(in_features=4096, out_features=1024, bias=True)
        )
      )
      (23): BloomBlock(
        (input_layernorm): LayerNorm((1024,), eps=1e-05, elementwise_affine=True)
        (self_attention): BloomAttention(
          (query_key_value): Linear(
            in_features=1024, out_features=3072, bias=True
            (lora_dropout): ModuleDict(
              (default): Dropout(p=0.1, inplace=False)
            )
            (lora_A): ModuleDict(
              (default): Linear(in_features=1024, out_features=30, bias=False)
            )
            (lora_B): ModuleDict(
              (default): Linear(in_features=30, out_features=3072, bias=False)
            )
            (lora_embedding_A): ParameterDict()
            (lora_embedding_B): ParameterDict()
          )
          (dense): Linear(
            in_features=1024, out_features=1024, bias=True
            (lora_dropout): ModuleDict(
              (default): Dropout(p=0.1, inplace=False)
            )
            (lora_A): ModuleDict(
              (default): Linear(in_features=1024, out_features=30, bias=False)
            )
            (lora_B): ModuleDict(
              (default): Linear(in_features=30, out_features=1024, bias=False)
            )
            (lora_embedding_A): ParameterDict()
            (lora_embedding_B): ParameterDict()
          )
          (attention_dropout): Dropout(p=0.0, inplace=False)
        )
        (post_attention_layernorm): LayerNorm((1024,), eps=1e-05, elementwise_affine=True)
        (mlp): BloomMLP(
          (dense_h_to_4h): Linear(
            in_features=1024, out_features=4096, bias=True
            (lora_dropout): ModuleDict(
              (default): Dropout(p=0.1, inplace=False)
            )
            (lora_A): ModuleDict(
              (default): Linear(in_features=1024, out_features=30, bias=False)
            )
            (lora_B): ModuleDict(
              (default): Linear(in_features=30, out_features=4096, bias=False)
            )
            (lora_embedding_A): ParameterDict()
            (lora_embedding_B): ParameterDict()
          )
          (gelu_impl): BloomGelu()
          (dense_4h_to_h): Linear(in_features=4096, out_features=1024, bias=True)
        )
      )
    )
    (ln_f): LayerNorm((1024,), eps=1e-05, elementwise_affine=True)
  )
  (lm_head): Linear(in_features=1024, out_features=250880, bias=False)
)
Gradient checkpointing enabled successfully
Loading data...
Loaded 52002 examples.
Limiting dataset to 200 examples.
Formatting inputs...
Tokenizing inputs... This may take some time...
Loaded dataset.
Warmup steps is set to 0
Booster init max CUDA memory: 1113.03 MB
Booster init max CPU memory: 4792.71 MB
Error: failed to run torchrun --nproc_p
…
